models/apple_quantized_model.tflite (tflite, 170536 bytes, 9 tensors)

sequential_1/quantize_annotate_4/Read_2/ReadVariableOp f4 [200]
0	0xbb0ad99e	-0.002118684
1	0x3b8ea7d6	0.0043535037
2	0xbb0cc5d5	-0.0021480222
3	0x3b743227	0.0037261338
4	0xbb023819	-0.0019869863
5	0x3b5d656a	0.0033782371
6	0xbb0d97c2	-0.0021605347
7	0x3b416e0f	0.0029515063
8	0x3b39d027	0.0028352828
9	0x3b49b2ac	0.0030776663
10	0xbb00eaa1	-0.00196711
11	0xbb1a7834	-0.0023570182
12	0xba620fef	-0.000862359
13	0xbb879a7c	-0.004138289
14	0x3b8b4449	0.0042500836
15	0x3b523a2e	0.0032078135
16	0x3b76b629	0.0037645197
17	0x3b4d5f73	0.003133741
18	0x3b57f9ba	0.0032955245
19	0x3b7e1bcf	0.00387739
20	0x3b5b3d1b	0.003345317
21	0x3b43c3af	0.0029871275
22	0x3b3cf30d	0.0028831393
23	0x3a641578	0.0008700709
24	0x3b6aa261	0.0035802352
25	0x3b9004b5	0.0043950924
26	0x3b3e606d	0.0029049173
27	0x3b2f1fcb	0.002672183
28	0x3b316235	0.0027066593
29	0x3b37a85e	0.0028023939
30	0x3b316174	0.0027066143
31	0xbb022555	-0.0019858677
32	0x3b5b7498	0.0033486243
33	0xbb0796c8	-0.0020689238
34	0x3b45c332	0.003017616
35	0x3b24dce1	0.0025156068
36	0xb9a8f9bc	-0.00032229524
37	0x3b4b703f	0.0031042246
38	0x3b59d45e	0.0033238153
39	0x3b2d64fe	0.00264579
40	0x3b3bffa1	0.0028686302
41	0x3b54fa8d	0.0032497973
42	0x3b436016	0.002981191
43	0x3b208c24	0.0024497593
44	0xbace1ca4	-0.0015725088
45	0x3b849e96	0.004047225
46	0xbad03029	-0.0015883493
47	0x3b76eecc	0.0037678955
48	0x3b4c4627	0.0031169744
49	0x3b1b2dc6	0.0023678406
50	0x3f7f7622	0.9978963
51	0x3f808fd4	1.0043893
52	0x3f7f74af	0.9978742
53	0x3f807bae	1.0037744
54	0x3f7f7efe	0.9980315
55	0x3f807010	1.0034199
56	0x3f7f72dd	0.9978464
57	0x3f806045	1.0029379
58	0x3f805d93	1.0028557
59	0x3f8065ae	1.003103
60	0x3f7f7f58	0.99803686
61	0x3f7f6605	0.99765044
62	0x3f7fc8b4	0.99915624
63	0x3f7ef21a	0.9958817
64	0x3f808cdd	1.0042988
65	0x3f806930	1.0032101
66	0x3f807c6b	1.0037969
67	0x3f806861	1.0031854
68	0x3f806d92	1.0033438
69	0x3f807fb7	1.0038975
70	0x3f806f65	1.0033995
71	0x3f8062f6	1.00302
72	0x3f805e49	1.0028774
73	0x3f801adf	1.00082
74	0x3f80761b	1.0036043
75	0x3f808fb7	1.0043858
76	0x3f806045	1.0029379
77	0x3f80580b	1.0026869
78	0x3f8058dc	1.0027118
79	0x3f805cad	1.0028282
80	0x3f805a2f	1.0027522
81	0x3f7f7f94	0.99804044
82	0x3f806e4d	1.0033661
83	0x3f7f788e	0.99793327
84	0x3f806405	1.0030524
85	0x3f80517b	1.0024866
86	0x3f7febc6	0.99969137
87	0x3f8066fb	1.0031427
88	0x3f806d8e	1.0033433
89	0x3f805873	1.0026993
90	0x3f80600b	1.002931
91	0x3f806a2a	1.0032399
92	0x3f80623f	1.0029982
93	0x3f8050bc	1.0024638
94	0x3f7f9977	0.99843544
95	0x3f80853f	1.0040663
96	0x3f7f9944	0.9984324
97	0x3f807be7	1.0037812
98	0x3f806751	1.003153
99	0x3f804d33	1.0023559
100	0x3b1789b6	0.0023122854
101	0x3b6b5293	0.0035907372
102	0x3b1be5ed	0.002378817
103	0x3b250bc5	0.0025184017
104	0xbb011803	-0.001969815
105	0x3b203e37	0.0024451145
106	0xbb15a2da	-0.0022832663
107	0x3b2aa4f1	0.0026038254
108	0x3b242737	0.0025047788
109	0x3b1f37b3	0.0024294674
110	0x3b17f153	0.0023184612
111	0xbb1bd8d4	-0.0023780363
112	0x3a59e424	0.00083118887
113	0xbb0c402e	-0.0021400559
114	0xbb756e74	-0.0037449868
115	0xbb2dc807	-0.002651693
116	0xbb2ec6af	-0.0026668718
117	0xbb257d40	-0.0025251657
118	0xbb238a07	-0.0024954097
119	0xbb282d37	-0.0025661716
120	0x3b537032	0.0032262919
121	0xbb28e1aa	-0.0025769272
122	0x3b2748ba	0.0025525526
123	0xba90a5cf	-0.0011035743
124	0xbb2d2204	-0.002641798
125	0xbb8c6d21	-0.00428547
126	0x3b2c4923	0.002628871
127	0xbb1b8297	-0.002372896
128	0x3b264774	0.002537218
129	0x3b2d0b8e	0.0026404592
130	0xbb1f2282	-0.0024282043
131	0x3b1b4b9f	0.0023696197
132	0xbb3d38ff	-0.0028873084
133	0x3b0ffa50	0.0021969266
134	0xbb34f7d1	-0.002761353
135	0xbb1f5020	-0.0024309233
136	0xbb1bfc21	-0.0023801404
137	0x3b2437c3	0.002505765
138	0xbb263694	-0.002536212
139	0x3b1d85a1	0.0024035948
140	0xbb3049d8	-0.0026899483
141	0x3b467428	0.0030281637
142	0x3b1fd8dc	0.0024390733
143	0x3b220d38	0.0024727117
144	0xbb13ce2e	-0.0022553313
145	0x3b25de22	0.0025309403
146	0xbb196b06	-0.0023409738
147	0xbb252184	-0.0025196979
148	0x3b2066f4	0.0024475427
149	0x3b29b1a2	0.002589323
150	0xbb0a9b9e	-0.0021149884
151	0x3b8d2f38	0.0043086074
152	0xbb0b2e19	-0.0021237193
153	0x3b771a85	0.0037705016
154	0xbb019d76	-0.0019777692
155	0x3b5fe843	0.0034165538
156	0xbb0cc920	-0.0021482185
157	0x3b42ade1	0.002970569
158	0x3b3c6fe5	0.0028753218
159	0x3b509cda	0.0031831772
160	0xbaff62f4	-0.0019484446
161	0xbb1a83c8	-0.0023577083
162	0xba60d0b2	-0.000857602
163	0xbb881234	-0.0041525606
164	0x3b8eb6f0	0.004355304
165	0x3b51e63a	0.0032028095
166	0x3b787abb	0.003791495
167	0x3b539d6f	0.0032289883
168	0x3b596eac	0.0033177538
169	0x3b7eb84a	0.003886717
170	0x3b5d5dbe	0.0033777799
171	0x3b44968d	0.0029996962
172	0x3b4008f8	0.002930222
173	0x3a4b5226	0.00077560765
174	0x3b6d9b1a	0.0036255778
175	0x3b903084	0.0044003148
176	0x3b41cf50	0.002957303
177	0x3b345685	0.002751739
178	0x3b335ecc	0.0027369736
179	0x3b38591e	0.002812929
180	0x3b36190d	0.0027785928
181	0xbb01cf85	-0.001980753
182	0x3b5d6598	0.0033782478
183	0xbb09660c	-0.0020965366
184	0x3b496122	0.0030728062
185	0x3b2712f7	0.0025493482
186	0xb9a497a9	-0.00031393513
187	0x3b51712c	0.0031958325
188	0x3b5b7963	0.00334891
189	0x3b37f5e3	0.0028070144
190	0x3b3a6b33	0.0028445243
191	0x3b542f7f	0.0032376943
192	0x3b48d0c7	0.003064202
193	0x3b21065a	0.0024570436
194	0xbacd401f	-0.0015659368
195	0x3b8600b6	0.00408944
196	0xbacf1d57	-0.0015801591
197	0x3b77fac8	0.0037838686
198	0x3b4d155b	0.0031293246
199	0x3b1a7945	0.0023570817

sequential_1/quantize_annotate_3/Read_2/ReadVariableOp f4 [240]
0	0x3b4caa57	0.003122946
1	0x3b5175ee	0.003196116
2	0x3b546eb1	0.003241461
3	0x3b90cdb0	0.004419051
4	0xbb08c5ee	-0.0020869928
5	0x3b51d8b0	0.0032020025
6	0x3a98de19	0.001166287
7	0x3b368f37	0.0027856359
8	0x3a9423f5	0.001130222
9	0xbb0e7ba0	-0.0021741167
10	0x3b4a85b2	0.0030902443
11	0x3b6bec46	0.0035998984
12	0x3b57324b	0.0032836373
13	0x3b9b0b5c	0.0047315788
14	0xba204df3	-0.0006115131
15	0x3b48b823	0.0030627332
16	0x3b3ee1a5	0.0029126194
17	0xbb0ff88d	-0.0021968216
18	0xbb1178ff	-0.0022197363
19	0x3b2fe558	0.002683958
20	0x3b43d52c	0.00298817
21	0xbae3c37c	-0.0017376984
22	0x3b3f98a4	0.0029235268
23	0x3b247692	0.0025095087
24	0x3b5a53b2	0.0033314046
25	0xba583b1b	-0.00082485535
26	0x3b42bf40	0.0029716045
27	0x3b6c5e44	0.003606693
28	0x3b494ce2	0.0030715992
29	0x3b3762bf	0.0027982441
30	0xbacadbc2	-0.001547687
31	0x3b330b50	0.0027319975
32	0x3b4defd8	0.0031423476
33	0x3b610085	0.0034332585
34	0x3b418d74	0.0029533776
35	0x3b6c978a	0.0036101067
36	0x3b5330b9	0.0032225086
37	0x3b871486	0.0041223196
38	0xb9a39803	-0.0003120304
39	0x3b6e3f5b	0.003635368
40	0x3b43ea1a	0.0029894174
41	0x3b818676	0.0039527966
42	0x3b3ff561	0.0029290544
43	0x3b82f9a1	0.0039970432
44	0x39b383eb	0.00034239827
45	0x3b33809c	0.002738989
46	0xbaf7caac	-0.0018905005
47	0xba0afab7	-0.00053016416
48	0x3a26774b	0.00063501735
49	0x3b36f882	0.0027919118
50	0x3b5e8b0f	0.0033957397
51	0xbaf53d50	-0.0018710289
52	0xbb0ef73b	-0.0021814841
53	0x37cb9c84	2.4272369e-05
54	0xbabe3ab8	-0.0014513349
55	0x3b246aa4	0.0025087977
56	0x3b6ab17c	0.0035811355
57	0x3b4997d6	0.0030760667
58	0x3b7bb1e7	0.0038405599
59	0x3b3d3ffd	0.0028877251
60	0x3f8066e0	1.0031395
61	0x3f806956	1.0032146
62	0x3f806a3a	1.0032418
63	0x3f80915d	1.0044361
64	0x3f7f77c5	0.9979213
65	0x3f8069bd	1.0032269
66	0x3f8026f2	1.0011885
67	0x3f805bcd	1.0028015
68	0x3f802449	1.0011073
69	0x3f7f7290	0.99784184
70	0x3f80659f	1.0031012
71	0x3f807650	1.0036106
72	0x3f806bbd	1.0032879
73	0x3f809cbf	1.0047835
74	0x3f7fda1a	0.9994217
75	0x3f8064cb	1.003076
76	0x3f805fbd	1.0029217
77	0x3f7f70c7	0.9978146
78	0x3f7f6e84	0.9977801
79	0x3f80582a	1.0026906
80	0x3f806245	1.002999
81	0x3f7f8eea	0.99827445
82	0x3f80609e	1.0029485
83	0x3f805268	1.0025148
84	0x3f806d70	1.0033398
85	0x3f7fcaa7	0.999186
86	0x3f806229	1.0029956
87	0x3f8076a5	1.0036207
88	0x3f80650f	1.0030841
89	0x3f805c2b	1.0028127
90	0x3f7f9b4b	0.99846333
91	0x3f8059a3	1.0027355
92	0x3f806747	1.0031518
93	0x3f8070b8	1.0034399
94	0x3f8060dc	1.0029559
95	0x3f80767e	1.0036161
96	0x3f806a72	1.0032485
97	0x3f808702	1.0041201
98	0x3f7fec29	0.99969727
99	0x3f8077c1	1.0036546
100	0x3f80628f	1.0030078
101	0x3f8084a7	1.0040482
102	0x3f806058	1.0029402
103	0x3f8083f4	1.0040269
104	0x3f800b56	1.000346
105	0x3f805a3f	1.0027541
106	0x3f7f8501	0.9981232
107	0x3f7fdea0	0.99949074
108	0x3f8013fd	1.00061
109	0x3f805b63	1.0027889
110	0x3f8070de	1.0034444
111	0x3f7f8607	0.99813884
112	0x3f7f7233	0.9978363
113	0x3f80022d	1.0000664
114	0x3f7fa14e	0.99855506
115	0x3f80523a	1.0025094
116	0x3f8075b1	1.0035917
117	0x3f8064b4	1.0030732
118	0x3f807e22	1.0038493
119	0x3f805f02	1.0028994
120	0xbb2f32f9	-0.0026733263
121	0xbb3178b1	-0.0027079994
122	0xbb51bedc	-0.003200463
123	0xbb8ba2e8	-0.0042613633
124	0x3b0db68c	0.00216237
125	0x3b42ee03	0.0029743917
126	0x3a56ef23	0.00081990863
127	0x3b322cad	0.0027187273
128	0x3a738e11	0.0009290884
129	0x3b186aa0	0.0023256913
130	0xbb3668c1	-0.0027833434
131	0xbb608549	-0.0034259132
132	0xbb42fb1b	-0.0029751721
133	0xbb9456a0	-0.004526928
134	0xbaf5d474	-0.0018755333
135	0x3b24c462	0.0025141467
136	0x3b35c0b1	0.0027733261
137	0xbb1a95fc	-0.0023587933
138	0xbb140cfe	-0.0022590752
139	0x3b23d621	0.0024999457
140	0x3b2dc97b	0.0026517797
141	0xbaf2cc07	-0.001852394
142	0xbb37c363	-0.0028040044
143	0xbb178d06	-0.0023124828
144	0x3b55d8be	0.003263041
145	0xbb11c031	-0.00222398
146	0x3b28d1e6	0.0025759875
147	0x3b6db89c	0.0036273366
148	0x3b46866f	0.003029253
149	0xbb0c67fe	-0.002142429
150	0xbb169d69	-0.0022982007
151	0xbb2d588b	-0.002645048
152	0x3b2463b2	0.0025083837
153	0x3b53ea9e	0.0032335888
154	0x3b3ebf26	0.0029105633
155	0x3b2ad1fd	0.0026065104
156	0xbb2e7461	-0.002661966
157	0x3b8161f3	0.003948444
158	0xb9a39c4d	-0.00031206236
159	0xbb26261c	-0.0025352305
160	0x3b371bc9	0.0027940145
161	0x3b3a2c02	0.0028407578
162	0xbb33952d	-0.0027402148
163	0x3b3a5601	0.002843261
164	0xba8bbc27	-0.0010660932
165	0xbb291cde	-0.002580456
166	0x3b183b5f	0.0023228747
167	0x3ad3b331	0.0016151426
168	0x3987e4d3	0.00025919694
169	0xbb2986bb	-0.002586766
170	0xbb48dcf8	-0.0030649286
171	0xbb0c13e0	-0.002137415
172	0xbb16cdf9	-0.0023010953
173	0xbb1397f4	-0.002252099
174	0xbb077dbc	-0.0020674309
175	0xbb20e5d3	-0.0024551048
176	0x3b59267e	0.0033134515
177	0xbb47a892	-0.0030465466
178	0x3b702a99	0.0036646484
179	0xbb36c72f	-0.0027889719
180	0x3b4d3cf8	0.0031316858
181	0x3b52482d	0.0032086477
182	0x3b54230c	0.0032369522
183	0x3b916010	0.0044365004
184	0xbb07c01e	-0.0020713876
185	0x3b536fc9	0.0032262674
186	0x3a9e08c2	0.0012057053
187	0x3b396795	0.00282905
188	0x3a8f2204	0.0010920172
189	0xbb0e6ee4	-0.0021733576
190	0x3b4b10f2	0.0030985442
191	0x3b6e32c3	0.0036346174
192	0x3b580d38	0.0032966863
193	0x3b9b5340	0.004740149
194	0xba1c93fa	-0.0005972978
195	0x3b47e383	0.0030500598
196	0x3b3fe7d1	0.002928246
197	0xbb0fe88c	-0.0021958677
198	0xbb11a3c6	-0.002222286
199	0x3b302aba	0.0026880936
200	0x3b44e6c2	0.003004477
201	0xbae2e0ea	-0.0017309461
202	0x3b43f585	0.002990098
203	0x3b254ef1	0.0025224055
204	0x3b5b2f00	0.0033444762
205	0xba55e749	-0.00081597693
206	0x3b46bb8b	0.0030324187
207	0x3b6e1acb	0.0036331888
208	0x3b4b61cc	0.0031033633
209	0x3b37f09f	0.0028067005
210	0xbacaa9f4	-0.0015462027
211	0x3b33ea67	0.0027452947
212	0x3b4d798f	0.0031352972
213	0x3b637b68	0.0034711007
214	0x3b417e37	0.0029524693
215	0x3b6da92b	0.0036264162
216	0x3b54645f	0.0032408459
217	0x3b871883	0.004122795
218	0xb9ab7326	-0.00032701454
219	0x3b705305	0.0036670577
220	0x3b466a16	0.0030275634
221	0x3b814ddc	0.003946049
222	0x3b42f750	0.002974946
223	0x3b82c484	0.0039907116
224	0x39566948	0.0002044785
225	0x3b3801e7	0.0028077306
226	0xbaf6dd69	-0.0018834296
227	0xba09e8b0	-0.00052608084
228	0x3a29f5ca	0.0006483464
229	0x3b36b967	0.0027881505
230	0x3b5faf91	0.0034131745
231	0xbaf34852	-0.0018560982
232	0xbb0ec8a3	-0.002178707
233	0x364b0e9c	3.025786e-06
234	0xbabedcd0	-0.0014561657
235	0x3b249ad1	0.0025116692
236	0x3b6c5afb	0.003606497
237	0x3b4a594c	0.003087598
238	0x3b7c941e	0.0038540433
239	0x3b3e3603	0.0029023893

sequential_1/dense/MatMul f4 [1, 50]
0	0x3e54fd80	0.20799828
1	0xbe0cc803	-0.13748173
2	0x3ea74d9e	0.32676405
3	0x3ead9749	0.33904484
4	0xbdd8206d	-0.1055306
5	0x3e61f934	0.2206772
6	0xbe81879d	-0.25298777
7	0x3e048936	0.12942967
8	0x3e71d910	0.23617959
9	0x3eaf005c	0.34179962
10	0x3e6b7d3c	0.22996992
11	0xbe9c278c	-0.30498922
12	0x3dca8a2a	0.09889634
13	0xbe268658	-0.16262186
14	0xbe149244	-0.14508921
15	0xbdb833da	-0.08994265
16	0xbe481287	-0.19538318
17	0xbe15a922	-0.146153
18	0xbdec87f9	-0.11549372
19	0xbe87e91b	-0.26545033
20	0xbd196a64	-0.037454978
21	0xbe37509a	-0.17901841
22	0x3e1dcd8b	0.1541044
23	0x3e0aec7f	0.13566779
24	0xbe650d8c	-0.22368449
25	0x3cc5b8c7	0.02413596
26	0x3ea47917	0.32123634
27	0xbe54f8c0	-0.20798016
28	0x3e1abc9d	0.15111013
29	0x3e046ea4	0.12932831
30	0xbdb366be	-0.08759831
31	0x3d6a08f7	0.057137456
32	0x3b01ab9e	0.001978613
33	0x3cea1275	0.028573254
34	0x3bbed417	0.005823623
35	0x3db3d566	0.08780937
36	0xbcb706d1	-0.022342118
37	0x3e2df728	0.16988814
38	0xbe406883	-0.18789868
39	0x3e668520	0.2251172
40	0xbe95935c	-0.2921399
41	0x3c3f71d0	0.01168485
42	0x3d186994	0.037210062
43	0x3dda66bf	0.106641285
44	0xbe8c405a	-0.27392846
45	0x3e7be8f9	0.24600591
46	0xbd02e246	-0.031954072
47	0xbea0e861	-0.3142729
48	0x3e370a81	0.178751
49	0x3d45e16c	0.048310682

sequential_1/quantize_annotate_3/Read_2/ReadVariableOp1 f4 [240]
0	0x3b4caa57	0.003122946
1	0x3b5175ee	0.003196116
2	0x3b546eb1	0.003241461
3	0x3b90cdb0	0.004419051
4	0xbb08c5ee	-0.0020869928
5	0x3b51d8b0	0.0032020025
6	0x3a98de19	0.001166287
7	0x3b368f37	0.0027856359
8	0x3a9423f5	0.001130222
9	0xbb0e7ba0	-0.0021741167
10	0x3b4a85b2	0.0030902443
11	0x3b6bec46	0.0035998984
12	0x3b57324b	0.0032836373
13	0x3b9b0b5c	0.0047315788
14	0xba204df3	-0.0006115131
15	0x3b48b823	0.0030627332
16	0x3b3ee1a5	0.0029126194
17	0xbb0ff88d	-0.0021968216
18	0xbb1178ff	-0.0022197363
19	0x3b2fe558	0.002683958
20	0x3b43d52c	0.00298817
21	0xbae3c37c	-0.0017376984
22	0x3b3f98a4	0.0029235268
23	0x3b247692	0.0025095087
24	0x3b5a53b2	0.0033314046
25	0xba583b1b	-0.00082485535
26	0x3b42bf40	0.0029716045
27	0x3b6c5e44	0.003606693
28	0x3b494ce2	0.0030715992
29	0x3b3762bf	0.0027982441
30	0xbacadbc2	-0.001547687
31	0x3b330b50	0.0027319975
32	0x3b4defd8	0.0031423476
33	0x3b610085	0.0034332585
34	0x3b418d74	0.0029533776
35	0x3b6c978a	0.0036101067
36	0x3b5330b9	0.0032225086
37	0x3b871486	0.0041223196
38	0xb9a39803	-0.0003120304
39	0x3b6e3f5b	0.003635368
40	0x3b43ea1a	0.0029894174
41	0x3b818676	0.0039527966
42	0x3b3ff561	0.0029290544
43	0x3b82f9a1	0.0039970432
44	0x39b383eb	0.00034239827
45	0x3b33809c	0.002738989
46	0xbaf7caac	-0.0018905005
47	0xba0afab7	-0.00053016416
48	0x3a26774b	0.00063501735
49	0x3b36f882	0.0027919118
50	0x3b5e8b0f	0.0033957397
51	0xbaf53d50	-0.0018710289
52	0xbb0ef73b	-0.0021814841
53	0x37cb9c84	2.4272369e-05
54	0xbabe3ab8	-0.0014513349
55	0x3b246aa4	0.0025087977
56	0x3b6ab17c	0.0035811355
57	0x3b4997d6	0.0030760667
58	0x3b7bb1e7	0.0038405599
59	0x3b3d3ffd	0.0028877251
60	0x3f8066e0	1.0031395
61	0x3f806956	1.0032146
62	0x3f806a3a	1.0032418
63	0x3f80915d	1.0044361
64	0x3f7f77c5	0.9979213
65	0x3f8069bd	1.0032269
66	0x3f8026f2	1.0011885
67	0x3f805bcd	1.0028015
68	0x3f802449	1.0011073
69	0x3f7f7290	0.99784184
70	0x3f80659f	1.0031012
71	0x3f807650	1.0036106
72	0x3f806bbd	1.0032879
73	0x3f809cbf	1.0047835
74	0x3f7fda1a	0.9994217
75	0x3f8064cb	1.003076
76	0x3f805fbd	1.0029217
77	0x3f7f70c7	0.9978146
78	0x3f7f6e84	0.9977801
79	0x3f80582a	1.0026906
80	0x3f806245	1.002999
81	0x3f7f8eea	0.99827445
82	0x3f80609e	1.0029485
83	0x3f805268	1.0025148
84	0x3f806d70	1.0033398
85	0x3f7fcaa7	0.999186
86	0x3f806229	1.0029956
87	0x3f8076a5	1.0036207
88	0x3f80650f	1.0030841
89	0x3f805c2b	1.0028127
90	0x3f7f9b4b	0.99846333
91	0x3f8059a3	1.0027355
92	0x3f806747	1.0031518
93	0x3f8070b8	1.0034399
94	0x3f8060dc	1.0029559
95	0x3f80767e	1.0036161
96	0x3f806a72	1.0032485
97	0x3f808702	1.0041201
98	0x3f7fec29	0.99969727
99	0x3f8077c1	1.0036546
100	0x3f80628f	1.0030078
101	0x3f8084a7	1.0040482
102	0x3f806058	1.0029402
103	0x3f8083f4	1.0040269
104	0x3f800b56	1.000346
105	0x3f805a3f	1.0027541
106	0x3f7f8501	0.9981232
107	0x3f7fdea0	0.99949074
108	0x3f8013fd	1.00061
109	0x3f805b63	1.0027889
110	0x3f8070de	1.0034444
111	0x3f7f8607	0.99813884
112	0x3f7f7233	0.9978363
113	0x3f80022d	1.0000664
114	0x3f7fa14e	0.99855506
115	0x3f80523a	1.0025094
116	0x3f8075b1	1.0035917
117	0x3f8064b4	1.0030732
118	0x3f807e22	1.0038493
119	0x3f805f02	1.0028994
120	0xbb2f32f9	-0.0026733263
121	0xbb3178b1	-0.0027079994
122	0xbb51bedc	-0.003200463
123	0xbb8ba2e8	-0.0042613633
124	0x3b0db68c	0.00216237
125	0x3b42ee03	0.0029743917
126	0x3a56ef23	0.00081990863
127	0x3b322cad	0.0027187273
128	0x3a738e11	0.0009290884
129	0x3b186aa0	0.0023256913
130	0xbb3668c1	-0.0027833434
131	0xbb608549	-0.0034259132
132	0xbb42fb1b	-0.0029751721
133	0xbb9456a0	-0.004526928
134	0xbaf5d474	-0.0018755333
135	0x3b24c462	0.0025141467
136	0x3b35c0b1	0.0027733261
137	0xbb1a95fc	-0.0023587933
138	0xbb140cfe	-0.0022590752
139	0x3b23d621	0.0024999457
140	0x3b2dc97b	0.0026517797
141	0xbaf2cc07	-0.001852394
142	0xbb37c363	-0.0028040044
143	0xbb178d06	-0.0023124828
144	0x3b55d8be	0.003263041
145	0xbb11c031	-0.00222398
146	0x3b28d1e6	0.0025759875
147	0x3b6db89c	0.0036273366
148	0x3b46866f	0.003029253
149	0xbb0c67fe	-0.002142429
150	0xbb169d69	-0.0022982007
151	0xbb2d588b	-0.002645048
152	0x3b2463b2	0.0025083837
153	0x3b53ea9e	0.0032335888
154	0x3b3ebf26	0.0029105633
155	0x3b2ad1fd	0.0026065104
156	0xbb2e7461	-0.002661966
157	0x3b8161f3	0.003948444
158	0xb9a39c4d	-0.00031206236
159	0xbb26261c	-0.0025352305
160	0x3b371bc9	0.0027940145
161	0x3b3a2c02	0.0028407578
162	0xbb33952d	-0.0027402148
163	0x3b3a5601	0.002843261
164	0xba8bbc27	-0.0010660932
165	0xbb291cde	-0.002580456
166	0x3b183b5f	0.0023228747
167	0x3ad3b331	0.0016151426
168	0x3987e4d3	0.00025919694
169	0xbb2986bb	-0.002586766
170	0xbb48dcf8	-0.0030649286
171	0xbb0c13e0	-0.002137415
172	0xbb16cdf9	-0.0023010953
173	0xbb1397f4	-0.002252099
174	0xbb077dbc	-0.0020674309
175	0xbb20e5d3	-0.0024551048
176	0x3b59267e	0.0033134515
177	0xbb47a892	-0.0030465466
178	0x3b702a99	0.0036646484
179	0xbb36c72f	-0.0027889719
180	0x3b4d3cf8	0.0031316858
181	0x3b52482d	0.0032086477
182	0x3b54230c	0.0032369522
183	0x3b916010	0.0044365004
184	0xbb07c01e	-0.0020713876
185	0x3b536fc9	0.0032262674
186	0x3a9e08c2	0.0012057053
187	0x3b396795	0.00282905
188	0x3a8f2204	0.0010920172
189	0xbb0e6ee4	-0.0021733576
190	0x3b4b10f2	0.0030985442
191	0x3b6e32c3	0.0036346174
192	0x3b580d38	0.0032966863
193	0x3b9b5340	0.004740149
194	0xba1c93fa	-0.0005972978
195	0x3b47e383	0.0030500598
196	0x3b3fe7d1	0.002928246
197	0xbb0fe88c	-0.0021958677
198	0xbb11a3c6	-0.002222286
199	0x3b302aba	0.0026880936
200	0x3b44e6c2	0.003004477
201	0xbae2e0ea	-0.0017309461
202	0x3b43f585	0.002990098
203	0x3b254ef1	0.0025224055
204	0x3b5b2f00	0.0033444762
205	0xba55e749	-0.00081597693
206	0x3b46bb8b	0.0030324187
207	0x3b6e1acb	0.0036331888
208	0x3b4b61cc	0.0031033633
209	0x3b37f09f	0.0028067005
210	0xbacaa9f4	-0.0015462027
211	0x3b33ea67	0.0027452947
212	0x3b4d798f	0.0031352972
213	0x3b637b68	0.0034711007
214	0x3b417e37	0.0029524693
215	0x3b6da92b	0.0036264162
216	0x3b54645f	0.0032408459
217	0x3b871883	0.004122795
218	0xb9ab7326	-0.00032701454
219	0x3b705305	0.0036670577
220	0x3b466a16	0.0030275634
221	0x3b814ddc	0.003946049
222	0x3b42f750	0.002974946
223	0x3b82c484	0.0039907116
224	0x39566948	0.0002044785
225	0x3b3801e7	0.0028077306
226	0xbaf6dd69	-0.0018834296
227	0xba09e8b0	-0.00052608084
228	0x3a29f5ca	0.0006483464
229	0x3b36b967	0.0027881505
230	0x3b5faf91	0.0034131745
231	0xbaf34852	-0.0018560982
232	0xbb0ec8a3	-0.002178707
233	0x364b0e9c	3.025786e-06
234	0xbabedcd0	-0.0014561657
235	0x3b249ad1	0.0025116692
236	0x3b6c5afb	0.003606497
237	0x3b4a594c	0.003087598
238	0x3b7c941e	0.0038540433
239	0x3b3e3603	0.0029023893

while/MatMul_11 f4 [240, 60]
0	0xbda200be	-0.07910298
1	0xbdf2acab	-0.1184934
2	0xbdec7877	-0.11546414
3	0xbd838fbc	-0.064238995
4	0x3da00723	0.07813861
5	0xbbbb8a3b	-0.0057232655
6	0xbc8ef2dc	-0.017449789
7	0xbcc3dfdf	-0.023910461
8	0x3d99b204	0.07504657
9	0xbc4253e1	-0.011860819
10	0xbd3d7408	-0.046253234
11	0x3ce823f6	0.02833746
12	0xbe022be5	-0.12712057
13	0xbb395f80	-0.0028285682
14	0xbb7edaf9	-0.0038887842
15	0xbd8e1914	-0.06938377
16	0x3dea2713	0.11433234
17	0xbe03108f	-0.12799285
18	0x3e34fb39	0.17673959
19	0x3dcdb4bf	0.1004424
20	0x3dc074af	0.09397256
21	0x3a812af1	0.0009854716
22	0xbd202359	-0.03909621
23	0x3cba44e9	0.022737937
24	0xbd5ee453	-0.054416966
25	0xbd0288ed	-0.031868864
26	0x3d89b88b	0.06724652
27	0xbda3deb6	-0.08001463
28	0xbcce230d	-0.025163198
29	0x3c4a307a	0.012340659
30	0xbdec058e	-0.11524497
31	0x3c9f70d9	0.01946299
32	0xbc2e9bca	-0.01065726
33	0xbd5f40cf	-0.054505166
34	0x3b80f213	0.0039351075
35	0x3ddbe8eb	0.10737785
36	0x3c6fce33	0.014636564
37	0xbd978d62	-0.074000135
38	0x3c8a645a	0.016893554
39	0xbdddeb7c	-0.10835931
40	0xbb73de54	-0.0037211375
41	0x3cdca34c	0.026933335
42	0x3de583f5	0.112068094
43	0xbab2d986	-0.0013645149
44	0xbca2d357	-0.019876165
45	0x3bb6272c	0.005558869
46	0xbce2f65b	-0.027705362
47	0x3d0385aa	0.032109894
48	0x3d9e6e77	0.07735913
49	0x3d89ca97	0.06728094
50	0x3e3e0cda	0.1855959
51	0xbca14f97	-0.019691272
52	0x3d80d564	0.06290701
53	0xbd81f4cf	-0.06345522
54	0x3e4743e2	0.19459489
55	0x3c4e0c67	0.012576199
56	0x3d903904	0.07042125
57	0xbdb3e049	-0.087830134
58	0xbd42fca9	-0.047604237
59	0xbd30d71a	-0.043173887
60	0xbdd6433b	-0.10462042
61	0xbc763f09	-0.015029677
62	0x3b72c370	0.003704276
63	0x3c4af87e	0.012388347
64	0x3d8c78a2	0.068589464
65	0x3d14a541	0.03629041
66	0xbd4fd6c9	-0.050741944
67	0x3d4963ec	0.04916756
68	0xbd72affa	-0.059249856
69	0x3e198ab1	0.14994313
70	0x3db0d6af	0.08634698
71	0x3d913b9c	0.07091448
72	0x3d03d3d4	0.032184437
73	0xbdb67b1f	-0.08910202
74	0xbd482963	-0.048867594
75	0x3d2a716d	0.041612078
76	0x3e18f0db	0.14935629
77	0x3d371dd7	0.044706192
78	0xbcda1f8e	-0.026626375
79	0x3da41825	0.08012418
80	0x3b403007	0.0029325502
81	0x3d04259e	0.032262437
82	0xbd106f12	-0.035262175
83	0x3d80a4f0	0.06281459
84	0x3db4f70c	0.08836183
85	0x3d861f40	0.06548929
86	0xbcfda2fc	-0.030961506
87	0xbcadcc40	-0.021215558
88	0x3ac6f314	0.0015178644
89	0xbd8a0639	-0.06739468
90	0xbd374ae2	-0.04474915
91	0xbd587f06	-0.052855514
92	0x3cf7f18c	0.030266546
93	0x3d10e859	0.035377834
94	0xbdfa21d0	-0.122134805
95	0xbd86cf37	-0.06582492
96	0x3d8870b7	0.06662124
97	0x3ccfeb73	0.025380826
98	0xbce66642	-0.028124932
99	0xbc8a3058	-0.016868755
100	0xbcd607b6	-0.026126724
101	0x3acc6790	0.0015594829
102	0x3c5782ec	0.013153773
103	0x3e054a5b	0.13016646
104	0xbe2f306a	-0.17108312
105	0xbe0a0579	-0.1347865
106	0xbc5d30db	-0.013500418
107	0xbd876871	-0.066117175
108	0xbcca68fe	-0.024708267
109	0x3bbdb781	0.0057896976
110	0xbd0bd7e4	-0.034141436
111	0xbbde48e0	-0.0067835897
112	0x3cbb4470	0.022859782
113	0xbca72a90	-0.020406038
114	0xbd6f48f0	-0.058419168
115	0xbd962754	-0.0733172
116	0xbc8cef85	-0.017204056
117	0xbc5cc562	-0.013474794
118	0x3b7e32df	0.0038787646
119	0xbdab1596	-0.083537266
120	0x3df38828	0.11891204
121	0xbdb1eb59	-0.08687467
122	0xbd136a3e	-0.035989992
123	0xbccd7b62	-0.025083248
124	0xbda4fcd1	-0.080560334
125	0x3cb80a80	0.022465944
126	0xbcc417f3	-0.023937201
127	0xbce23c55	-0.02761666
128	0x3dc56897	0.096390896
129	0xbd253c3c	-0.040340647
130	0xbd8fc320	-0.07019639
131	0x3d86e6b8	0.06586975
132	0x3c8f2c87	0.017477287
133	0xbdf23e15	-0.118282475
134	0x3d1205d3	0.035650086
135	0xbcaf6a2b	-0.02141293
136	0x3daaabdc	0.08333561
137	0x3cd913e8	0.02649875
138	0x3ddce988	0.1078673
139	0x3dcc8f9a	0.09988327
140	0xbda80606	-0.08204274
141	0xbd9c5da3	-0.07635047
142	0x3d58a5d6	0.05289253
143	0x3b3f13a4	0.0029155994
144	0xbdb57cb3	-0.08861675
145	0xbbf519f8	-0.0074799024
146	0xbc9b1d35	-0.018934825
147	0x3e5b9de8	0.21446955
148	0xbe2af2a7	-0.16694127
149	0x3e195b4c	0.14976233
150	0xbd77ac8c	-0.060467288
151	0xbc0ac6fc	-0.008470293
152	0xbd91dbda	-0.071220115
153	0xbaf9770f	-0.0019032675
154	0x3c709150	0.014683083
155	0xbcf62a03	-0.03004933
156	0x3d7911f7	0.06080815
157	0xbcd68dd1	-0.02619067
158	0x3bc4bb6f	0.006003789
159	0xbc4670f3	-0.01211189
160	0xbc9b7601	-0.018977167
161	0x3d9edf88	0.07757479
162	0x3cf06af6	0.029347878
163	0x3bc7740d	0.0060868324
164	0x3d62478c	0.055244014
165	0x3d546cdb	0.051861625
166	0x3cf5da46	0.030011307
167	0xbd3666e7	-0.04453173
168	0xbd24d314	-0.040240362
169	0xbbc5ee98	-0.0060404055
170	0x3c586fae	0.01321022
171	0x3dc20cda	0.094751075
172	0x3d3371e3	0.043809783
173	0x3d628138	0.055299014
174	0xbd91a2f2	-0.071111575
175	0x3dbeaa65	0.09309844
176	0xbdb8999c	-0.09013674
177	0x3c665144	0.014057461
178	0xbda4878f	-0.08033668
179	0xbce07e40	-0.02740395
180	0x3d693e58	0.05694422
181	0x38f7669b	0.000117969896
182	0x3c9cbb91	0.019132407
183	0xba69728d	-0.0008905314
184	0x3da8071c	0.08204481
185	0x3e0ba1ea	0.13635984
186	0x3d08c4a8	0.03339067
187	0xbcdfd0b9	-0.027321206
188	0xbd4d7629	-0.050161514
189	0x3c9a9e08	0.018874183
190	0x3cafcbcb	0.02145948
191	0x3d3b0c05	0.04566576
192	0xbd2abd14	-0.041684225
193	0x3c636387	0.01387871
194	0x3cd78066	0.026306342
195	0x3de15803	0.11003115
196	0x3cfa9a0f	0.030591039
197	0xbd6db9f9	-0.058038685
198	0xbdad5901	-0.08464242
199	0xbd6ea780	-0.05826521
200	0x3dca3c32	0.098747626
201	0x3d6568ad	0.05600803
202	0x3c818443	0.015810138
203	0x3d54e09f	0.051972028
204	0xbe4bba3e	-0.19895265
205	0x3d9de1a5	0.07709054
206	0xbcf58d8d	-0.029974723
207	0x3b027d6c	0.0019911183
208	0xbc86d7d7	-0.016460342
209	0xbdf16144	-0.1178613
210	0xbc8f69e1	-0.017506542
211	0x3d44f919	0.04808912
212	0xbd93a1d2	-0.07208599
213	0x3d98e33d	0.07465217
214	0x3c82baff	0.015958307
215	0x3d9bdd06	0.07610516
216	0xbd299c44	-0.041408792
217	0x3d97e49f	0.07416653
218	0xbae80adc	-0.0017703432
219	0x3c6c3fa3	0.014419469
220	0x3dd89c5b	0.105766974
221	0xbc94f91f	-0.018185196
222	0xbd6b2ec4	-0.057417646
223	0xbdee14de	-0.11625074
224	0x3d561e8f	0.052275237
225	0x3c33bbc3	0.010970059
226	0xbdce6dd1	-0.100795396
227	0xbc34f60c	-0.01104499
228	0xbdb65fdb	-0.08905002
229	0x3d603818	0.054740995
230	0x3dacc136	0.084352896
231	0x3da04037	0.07824748
232	0x3da5e97b	0.081011735
233	0x3da53230	0.08066213
234	0x3d10dd5b	0.03536735
235	0xbca1c321	-0.019746365
236	0xbe1d4172	-0.15356997
237	0xbd8fd812	-0.07023634
238	0x3db998e6	0.09062366
239	0x3d794a16	0.06086167
240	0x3dbb00c3	0.09131005
241	0xbaf02269	-0.0018320802
242	0x3d12cd21	0.035840157
243	0xbcf1dc2c	-0.029523931
244	0x3d673fdf	0.056457397
245	0x3c710261	0.01471004
246	0x3e25124e	0.16120264
247	0xbd8b6e02	-0.06808092
248	0xbd4aa858	-0.04947695
249	0xbc6295cc	-0.01382966
250	0xbda22d3d	-0.07918785
251	0x3cffed99	0.031241225
252	0x3b3f435a	0.0029184432
253	0x3cdac3a0	0.02670461
254	0xbdee9f8e	-0.116515264
255	0xbdbf0515	-0.09327141

while/MatMul f4 [240, 5]
0	0xbd1c3c5c	-0.0381435
1	0xbc51218a	-0.012764344
2	0xbdecc5f4	-0.11561194
3	0xbe0e812e	-0.13916466
4	0xbce097bb	-0.0274161
5	0xbd01074e	-0.031501107
6	0xbd068210	-0.03283888
7	0xbe1bbb67	-0.15208207
8	0x3da528b6	0.080644056
9	0xbdd45db9	-0.10369439
10	0xbe165360	-0.14680243
11	0xbd320300	-0.043459892
12	0x3da12b2e	0.07869564
13	0x3c833d3d	0.016020412
14	0x3d211faf	0.039336856
15	0x3e00d175	0.12579902
16	0xbdb0f8f5	-0.08641235
17	0x3e0a31a7	0.13495503
18	0xbd7a50f7	-0.06111237
19	0x3daeecb8	0.08541244
20	0xbd9c7080	-0.07638645
21	0xbdaeb331	-0.08530272
22	0x3dfa9fbc	0.12237498
23	0xbe05f17d	-0.13080402
24	0xbddc0d7d	-0.1074476
25	0x3df436ca	0.11924513
26	0xbd11b775	-0.03557535
27	0xbde47568	-0.11155206
28	0x3e1acdeb	0.15117614
29	0xbd8fca04	-0.07020953
30	0x3dd3b610	0.1033746
31	0xbce8b70b	-0.028407594
32	0x3dff196d	0.124560215
33	0x3d1c3752	0.038138695
34	0x3ce432bf	0.027856229
35	0x3dc4b040	0.096039295
36	0xbdc6c0ba	-0.097047284
37	0xbc9294f3	-0.01789329
38	0xbcc61f3c	-0.024184816
39	0xbdcfb012	-0.101410046
40	0xbd19832d	-0.037478615
41	0x3e0586f2	0.13039759
42	0xbd53c009	-0.05169681
43	0xbe0ed86e	-0.13949749
44	0xbd41da16	-0.047327124
45	0x3dd5c813	0.10438552
46	0xbd35c659	-0.044378612
47	0x3de3d7fc	0.1112518
48	0xbdc94eab	-0.09829458
49	0xbdb5c7e6	-0.08876018
50	0x3cc4a943	0.024006492
51	0xbdf50acf	-0.11964952
52	0xbe106eaf	-0.14104722
53	0xbcc32ea5	-0.023825953
54	0x3e1a8208	0.15088665
55	0xbe11dc6a	-0.14244238
56	0x3dcfbab9	0.101430364
57	0x3d769f78	0.060210675
58	0xbdd7922a	-0.105259255
59	0xbd9d0405	-0.07666782
60	0xbd5c180c	-0.05373387
61	0x3dd73eca	0.10510023
62	0xbe1a3eff	-0.15063094
63	0x3d40a91f	0.047036286
64	0x3d9567fd	0.07295225
65	0x3d0b4148	0.033997804
66	0x3ddeffa5	0.10888604
67	0xbdf98010	-0.12182629
68	0x3d2548a5	0.040352482
69	0x3d502317	0.050814714
70	0x3d5af8ae	0.053459816
71	0xbb4eb9c2	-0.0031543826
72	0x3b306aa4	0.0026919032
73	0xbc9d3015	-0.019187966
74	0x3c1ef35f	0.009701579
75	0x3ddbf61b	0.107403
76	0x3d7891a0	0.060685754
77	0x3e07d334	0.13264161
78	0x3ddfef82	0.10934354
79	0x3d287ef6	0.041136704
80	0xbd18149f	-0.03712904
81	0x3d4a6a35	0.049417693
82	0x3c1819d4	0.009283502
83	0xbe095aca	-0.1341354
84	0xbd9805e6	-0.07423
85	0xbda00546	-0.07813506
86	0x3c9a363c	0.01882469
87	0xbcbf3f84	-0.023345716
88	0xbdb0576b	-0.08610424
89	0x3dcfccfe	0.10146521
90	0x3ab86ac1	0.0014069901
91	0x3df441ef	0.11926638
92	0x3db80819	0.089859195
93	0x3d18be59	0.037290905
94	0x3d300fbe	0.042983763
95	0x3e1c7979	0.15280713
96	0x3cb1fe78	0.021727785
97	0x3d3a2994	0.04544981
98	0xbd0aa9fa	-0.03385351
99	0x3def6cae	0.11690651
100	0xbd832f19	-0.064054675
101	0x3db569a5	0.08858041
102	0xbdcebfb6	-0.1009516
103	0x3c3d5dda	0.0115580205
104	0xbd4d83b0	-0.050174415
105	0x3b8c7375	0.0042862245
106	0xbe1eaa17	-0.15494572
107	0xbd9f37cc	-0.07774314
108	0x3c6a2e23	0.014293226
109	0xbce45654	-0.027873196
110	0x3e120d2f	0.14262842
111	0x3e151aa2	0.14560941
112	0xbadd66c5	-0.001689159
113	0x3d87a5ca	0.06623419
114	0xbcb859e4	-0.0225038
115	0x3e1c5cec	0.15269822
116	0xbd31c927	-0.043404724
117	0x3d3a2074	0.045441106
118	0xbd27e2ca	-0.040987767
119	0x3dfc4149	0.1231714
120	0xbd0b86d7	-0.03406414
121	0xbe043d4e	-0.12914011
122	0x3dd80297	0.10547369
123	0x3dea3c3c	0.1143727
124	0xbdc63038	-0.09677166
125	0x3d88c85f	0.06678843
126	0x3cab4b0e	0.020909812
127	0x3e1d9f9d	0.15392919
128	0x3d8b39cd	0.06798134
129	0x3ddd4f0a	0.10806091
130	0xbd778f25	-0.060439248
131	0xbe040a47	-0.12894545
132	0x3d88b437	0.06674998
133	0x3c8fb79a	0.017543603
134	0xbbc782a7	-0.006088573
135	0x3e0f567f	0.1399784
136	0x3c708421	0.0146799395
137	0xbda284a9	-0.07935459
138	0xbd9b16ad	-0.075726844
139	0x3e01da99	0.12681045
140	0x3e043890	0.12912202
141	0x3e107125	0.14105661
142	0x3d1c24ca	0.038121022
143	0x3b8efc99	0.004363608
144	0x3d31979c	0.043357477
145	0xbde79bbf	-0.11309003
146	0xbd87ca32	-0.066303626
147	0xbb96055e	-0.0045782765
148	0xbdfa9af0	-0.12236583
149	0xbc187f98	-0.0093077645
150	0xbd30b7c1	-0.04314399
151	0x3c1be4b6	0.009514978
152	0x3d8cd00a	0.06875618
153	0x3c7fe638	0.015618853
154	0x3d4618e3	0.048363578
155	0xbd6a04c2	-0.057133444
156	0xbdd4c88d	-0.103898145
157	0xbd2a6675	-0.041601617
158	0xbd8ab3a1	-0.06772543
159	0xbe195521	-0.1497388
160	0x3dac3371	0.08408249
161	0x3deeaef4	0.116544634
162	0xbda2ef6f	-0.079558246
163	0x3dceff74	0.101073176
164	0xbd876899	-0.06611747
165	0x3e1cc0c6	0.15307912
166	0x3d8d030f	0.06885349
167	0x3d9a370c	0.075300306
168	0xbd6a215f	-0.05716073
169	0xbe117a12	-0.14206722
170	0x3dfc92a3	0.12332656
171	0x3d762032	0.060089298
172	0xbcc2eaa6	-0.02379353
173	0xbca4df0b	-0.020125886
174	0x3c70f719	0.01470735
175	0x3c9c47f9	0.019077288
176	0x3d6797f2	0.05654139
177	0x3d9c2980	0.07625103
178	0x3d85e990	0.06538689
179	0x3dbb07c0	0.091323376
180	0x3d0b3c83	0.033993255
181	0xbc2e7341	-0.010647596
182	0xb9d3c15b	-0.00040389117
183	0x3d834349	0.06409318
184	0xbdaaefad	-0.08346496
185	0xbdd736e8	-0.105085194
186	0x3c87b488	0.016565576
187	0x3dce308d	0.10067854
188	0xbde2cff1	-0.11074818
189	0xbe07feea	-0.13280836
190	0x3d0100e3	0.031494986
191	0xbd1c437c	-0.038150296
192	0x3e0fd285	0.1404515
193	0xbd4bde6a	-0.049772657
194	0xbbe2719f	-0.0069105173
195	0x3e1fbbb1	0.15598942
196	0xba8248ef	-0.0009939949
197	0xbe071e2d	-0.13195105
198	0x3ce91364	0.028451629
199	0x3d58709f	0.05284178
200	0x3d515b16	0.051112257
201	0x3d192e07	0.03739741
202	0xbd826b60	-0.063681364
203	0xbe0d3089	-0.13788046
204	0xbd7ad8cb	-0.061241906
205	0xbcc26a50	-0.023732334
206	0xbd7c5862	-0.061607726
207	0xba9dd571	-0.001204176
208	0xbd9e46f7	-0.07728379
209	0xbdc3f55a	-0.095682815
210	0x3e03b537	0.12862097
211	0xbdbeb4c9	-0.09311826
212	0x3e16ebda	0.14738408
213	0xbc09eed4	-0.0084187575
214	0xbdfb1a43	-0.122608684
215	0x3deda3b0	0.116034865
216	0x3dbd14cb	0.092324816
217	0x3d320dd2	0.04347021
218	0x3dd5c8e7	0.1043871
219	0x3e015d9d	0.12633367
220	0xbbc93aea	-0.0061410563
221	0x3da49f8f	0.08038246
222	0xbd16e9f2	-0.0368442
223	0x3ddda525	0.108225144
224	0xbc5e80be	-0.013580499
225	0x3ddd0540	0.10792017
226	0x3e223680	0.15841103
227	0x3e123cdf	0.14281033
228	0x3e20261e	0.1563954
229	0x3d61aa5e	0.055094115
230	0xbde372da	-0.111058906
231	0x3e015442	0.12629798
232	0x3d27dce7	0.040982153
233	0xbe19bd00	-0.15013504
234	0x3d64aa35	0.055826385
235	0xbdf60df7	-0.12014382
236	0xbb5c956e	-0.0033658403
237	0xbd9347a4	-0.07191399
238	0x3c5fc1ad	0.013657016
239	0xbd41455a	-0.04718528
240	0xbe0f589e	-0.13998649
241	0xbdb3130f	-0.087438695
242	0x3d8bc21c	0.06824133
243	0xbdfc3c3e	-0.12316178
244	0xbd6d14f1	-0.0578813
245	0xbda9b986	-0.08287339
246	0xbd0af143	-0.03392149
247	0x3db83a3e	0.08995484
248	0x3e096ebe	0.13421151
249	0x3cdca12f	0.026932327
250	0x3a303270	0.0006721383
251	0x3cfe70e0	0.031059682
252	0xbe16081f	-0.14651535
253	0x3e049dbb	0.12950794
254	0x3e19c393	0.15016012
255	0xbe1a29a6	-0.1505495

sequential_1/quantize_annotate_4/Read_2/ReadVariableOp1 f4 [200]
0	0xbb0ad99e	-0.002118684
1	0x3b8ea7d6	0.0043535037
2	0xbb0cc5d5	-0.0021480222
3	0x3b743227	0.0037261338
4	0xbb023819	-0.0019869863
5	0x3b5d656a	0.0033782371
6	0xbb0d97c2	-0.0021605347
7	0x3b416e0f	0.0029515063
8	0x3b39d027	0.0028352828
9	0x3b49b2ac	0.0030776663
10	0xbb00eaa1	-0.00196711
11	0xbb1a7834	-0.0023570182
12	0xba620fef	-0.000862359
13	0xbb879a7c	-0.004138289
14	0x3b8b4449	0.0042500836
15	0x3b523a2e	0.0032078135
16	0x3b76b629	0.0037645197
17	0x3b4d5f73	0.003133741
18	0x3b57f9ba	0.0032955245
19	0x3b7e1bcf	0.00387739
20	0x3b5b3d1b	0.003345317
21	0x3b43c3af	0.0029871275
22	0x3b3cf30d	0.0028831393
23	0x3a641578	0.0008700709
24	0x3b6aa261	0.0035802352
25	0x3b9004b5	0.0043950924
26	0x3b3e606d	0.0029049173
27	0x3b2f1fcb	0.002672183
28	0x3b316235	0.0027066593
29	0x3b37a85e	0.0028023939
30	0x3b316174	0.0027066143
31	0xbb022555	-0.0019858677
32	0x3b5b7498	0.0033486243
33	0xbb0796c8	-0.0020689238
34	0x3b45c332	0.003017616
35	0x3b24dce1	0.0025156068
36	0xb9a8f9bc	-0.00032229524
37	0x3b4b703f	0.0031042246
38	0x3b59d45e	0.0033238153
39	0x3b2d64fe	0.00264579
40	0x3b3bffa1	0.0028686302
41	0x3b54fa8d	0.0032497973
42	0x3b436016	0.002981191
43	0x3b208c24	0.0024497593
44	0xbace1ca4	-0.0015725088
45	0x3b849e96	0.004047225
46	0xbad03029	-0.0015883493
47	0x3b76eecc	0.0037678955
48	0x3b4c4627	0.0031169744
49	0x3b1b2dc6	0.0023678406
50	0x3f7f7622	0.9978963
51	0x3f808fd4	1.0043893
52	0x3f7f74af	0.9978742
53	0x3f807bae	1.0037744
54	0x3f7f7efe	0.9980315
55	0x3f807010	1.0034199
56	0x3f7f72dd	0.9978464
57	0x3f806045	1.0029379
58	0x3f805d93	1.0028557
59	0x3f8065ae	1.003103
60	0x3f7f7f58	0.99803686
61	0x3f7f6605	0.99765044
62	0x3f7fc8b4	0.99915624
63	0x3f7ef21a	0.9958817
64	0x3f808cdd	1.0042988
65	0x3f806930	1.0032101
66	0x3f807c6b	1.0037969
67	0x3f806861	1.0031854
68	0x3f806d92	1.0033438
69	0x3f807fb7	1.0038975
70	0x3f806f65	1.0033995
71	0x3f8062f6	1.00302
72	0x3f805e49	1.0028774
73	0x3f801adf	1.00082
74	0x3f80761b	1.0036043
75	0x3f808fb7	1.0043858
76	0x3f806045	1.0029379
77	0x3f80580b	1.0026869
78	0x3f8058dc	1.0027118
79	0x3f805cad	1.0028282
80	0x3f805a2f	1.0027522
81	0x3f7f7f94	0.99804044
82	0x3f806e4d	1.0033661
83	0x3f7f788e	0.99793327
84	0x3f806405	1.0030524
85	0x3f80517b	1.0024866
86	0x3f7febc6	0.99969137
87	0x3f8066fb	1.0031427
88	0x3f806d8e	1.0033433
89	0x3f805873	1.0026993
90	0x3f80600b	1.002931
91	0x3f806a2a	1.0032399
92	0x3f80623f	1.0029982
93	0x3f8050bc	1.0024638
94	0x3f7f9977	0.99843544
95	0x3f80853f	1.0040663
96	0x3f7f9944	0.9984324
97	0x3f807be7	1.0037812
98	0x3f806751	1.003153
99	0x3f804d33	1.0023559
100	0x3b1789b6	0.0023122854
101	0x3b6b5293	0.0035907372
102	0x3b1be5ed	0.002378817
103	0x3b250bc5	0.0025184017
104	0xbb011803	-0.001969815
105	0x3b203e37	0.0024451145
106	0xbb15a2da	-0.0022832663
107	0x3b2aa4f1	0.0026038254
108	0x3b242737	0.0025047788
109	0x3b1f37b3	0.0024294674
110	0x3b17f153	0.0023184612
111	0xbb1bd8d4	-0.0023780363
112	0x3a59e424	0.00083118887
113	0xbb0c402e	-0.0021400559
114	0xbb756e74	-0.0037449868
115	0xbb2dc807	-0.002651693
116	0xbb2ec6af	-0.0026668718
117	0xbb257d40	-0.0025251657
118	0xbb238a07	-0.0024954097
119	0xbb282d37	-0.0025661716
120	0x3b537032	0.0032262919
121	0xbb28e1aa	-0.0025769272
122	0x3b2748ba	0.0025525526
123	0xba90a5cf	-0.0011035743
124	0xbb2d2204	-0.002641798
125	0xbb8c6d21	-0.00428547
126	0x3b2c4923	0.002628871
127	0xbb1b8297	-0.002372896
128	0x3b264774	0.002537218
129	0x3b2d0b8e	0.0026404592
130	0xbb1f2282	-0.0024282043
131	0x3b1b4b9f	0.0023696197
132	0xbb3d38ff	-0.0028873084
133	0x3b0ffa50	0.0021969266
134	0xbb34f7d1	-0.002761353
135	0xbb1f5020	-0.0024309233
136	0xbb1bfc21	-0.0023801404
137	0x3b2437c3	0.002505765
138	0xbb263694	-0.002536212
139	0x3b1d85a1	0.0024035948
140	0xbb3049d8	-0.0026899483
141	0x3b467428	0.0030281637
142	0x3b1fd8dc	0.0024390733
143	0x3b220d38	0.0024727117
144	0xbb13ce2e	-0.0022553313
145	0x3b25de22	0.0025309403
146	0xbb196b06	-0.0023409738
147	0xbb252184	-0.0025196979
148	0x3b2066f4	0.0024475427
149	0x3b29b1a2	0.002589323
150	0xbb0a9b9e	-0.0021149884
151	0x3b8d2f38	0.0043086074
152	0xbb0b2e19	-0.0021237193
153	0x3b771a85	0.0037705016
154	0xbb019d76	-0.0019777692
155	0x3b5fe843	0.0034165538
156	0xbb0cc920	-0.0021482185
157	0x3b42ade1	0.002970569
158	0x3b3c6fe5	0.0028753218
159	0x3b509cda	0.0031831772
160	0xbaff62f4	-0.0019484446
161	0xbb1a83c8	-0.0023577083
162	0xba60d0b2	-0.000857602
163	0xbb881234	-0.0041525606
164	0x3b8eb6f0	0.004355304
165	0x3b51e63a	0.0032028095
166	0x3b787abb	0.003791495
167	0x3b539d6f	0.0032289883
168	0x3b596eac	0.0033177538
169	0x3b7eb84a	0.003886717
170	0x3b5d5dbe	0.0033777799
171	0x3b44968d	0.0029996962
172	0x3b4008f8	0.002930222
173	0x3a4b5226	0.00077560765
174	0x3b6d9b1a	0.0036255778
175	0x3b903084	0.0044003148
176	0x3b41cf50	0.002957303
177	0x3b345685	0.002751739
178	0x3b335ecc	0.0027369736
179	0x3b38591e	0.002812929
180	0x3b36190d	0.0027785928
181	0xbb01cf85	-0.001980753
182	0x3b5d6598	0.0033782478
183	0xbb09660c	-0.0020965366
184	0x3b496122	0.0030728062
185	0x3b2712f7	0.0025493482
186	0xb9a497a9	-0.00031393513
187	0x3b51712c	0.0031958325
188	0x3b5b7963	0.00334891
189	0x3b37f5e3	0.0028070144
190	0x3b3a6b33	0.0028445243
191	0x3b542f7f	0.0032376943
192	0x3b48d0c7	0.003064202
193	0x3b21065a	0.0024570436
194	0xbacd401f	-0.0015659368
195	0x3b8600b6	0.00408944
196	0xbacf1d57	-0.0015801591
197	0x3b77fac8	0.0037838686
198	0x3b4d155b	0.0031293246
199	0x3b1a7945	0.0023570817

while/MatMul_14 f4 [200, 50]
0	0x3e15088b	0.1455404
1	0x3d3622bb	0.044466715
2	0xbcff14f0	-0.031137913
3	0xbd67f2b3	-0.05662794
4	0x3c515cf9	0.012778514
5	0xbcd2d67b	-0.025737038
6	0xbbbda3b6	-0.005787338
7	0xbd1a9e2a	-0.037748493
8	0x3c9991d8	0.018746302
9	0xbd489494	-0.04896982
10	0x3d8ecbf7	0.06972497
11	0xbc6d0b99	-0.014468097
12	0x3d6fa129	0.058503304
13	0xbb7eeeaf	-0.003889959
14	0xbc5f643e	-0.013634739
15	0x3d8982d0	0.06714404
16	0x3d7cbae9	0.06170169
17	0x3d3b3838	0.04570791
18	0x3dbc01e1	0.09180046
19	0xbdaa7348	-0.083227694
20	0xbbe84bfe	-0.007089137
21	0x3ca38569	0.019961076
22	0x3cd571df	0.026055275
23	0x3c087883	0.0083295135
24	0xbc6267e7	-0.013818718
25	0x3ce96162	0.028488819
26	0x3d18ef92	0.037337847
27	0xbe10e799	-0.14150847
28	0xbd19acd1	-0.037518326
29	0xbbbb73b4	-0.00572058
30	0xbc6beabf	-0.01439923
31	0x3d430541	0.047612432
32	0x3dc5c4d7	0.09656685
33	0x3d45656c	0.048192427
34	0x3d592e12	0.05302245
35	0x3de1fae2	0.1103418
36	0xbd9a0836	-0.07521097
37	0x3c89adcd	0.016806507
38	0xbbd0eff2	-0.00637626
39	0xbc815aad	-0.015790308
40	0xbce45e9f	-0.02787715
41	0x3d928092	0.07153429
42	0xbd13b8cb	-0.036064904
43	0xbdd24471	-0.102669604
44	0x3d3afcac	0.045651123
45	0xbdfbaf4b	-0.12289294
46	0xbcff775c	-0.031184845
47	0xbd69e16f	-0.057099756
48	0x3de68190	0.11255181
49	0xbe05000b	-0.12988298
50	0xbdeae6a8	-0.114697754
51	0xbd15aec8	-0.036543638
52	0xbd900435	-0.070320524
53	0x3da81071	0.08206261
54	0x3deb589d	0.11491511
55	0xbdff754f	-0.12473547
56	0xbdbda92a	-0.09260781
57	0xbe03c057	-0.1286634
58	0xbd5d8c5c	-0.054088935
59	0x3c7e0433	0.015503931
60	0x3999749d	0.00029269318
61	0x3ba6b4a8	0.005087454
62	0x3ce835ee	0.028346028
63	0xbd121457	-0.03566393
64	0xbc986e16	-0.01860718
65	0xbe0e3084	-0.13885695
66	0xbdaeab7d	-0.085288025
67	0x3d7e47c1	0.06208015
68	0x3b8491db	0.0040457076
69	0xbe0ea5d4	-0.13930446
70	0x3dec08f9	0.11525149
71	0x3d2f6a5c	0.04282604
72	0x3bdabe91	0.0066755493
73	0xbce2591d	-0.027630383
74	0xbcc11a36	-0.023572069
75	0x3cdff969	0.027340608
76	0x3ddb99d0	0.10722697
77	0x3dbf9df4	0.09356299
78	0xbca527fe	-0.020160671
79	0x3df84a16	0.12123506
80	0xbce93612	-0.028468166
81	0xbceb40cd	-0.028717423
82	0x3c8fdb3f	0.0175606
83	0x3d775d22	0.060391553
84	0xbc2784a6	-0.010224497
85	0xbdb6f776	-0.08933918
86	0x3d46dc51	0.048549954
87	0x3cabaa3c	0.020955198
88	0x3c474334	0.012162019
89	0x3d7aec44	0.061260477
90	0x3d3747ab	0.044746082
91	0x3cc1d111	0.023659261
92	0x3d2357b5	0.039878566
93	0x3dfeed3c	0.124475926
94	0x3db40cd5	0.0879151
95	0x3c99b3fb	0.01876258
96	0xbc857ba8	-0.016294315
97	0x3e1b6da2	0.1517854
98	0xbbc1aaa7	-0.005910236
99	0x3d11df5a	0.035613395
100	0x3d9c6df0	0.076381564
101	0xbda70a7c	-0.081562966
102	0xbbb9c73f	-0.005669504
103	0x3d84ea9b	0.0649006
104	0xbb35dc28	-0.0027749632
105	0xbdedc289	-0.1160937
106	0x3e32c56c	0.17458123
107	0xbdc38dc1	-0.09548522
108	0x3d95011f	0.072756045
109	0x3c326635	0.010888626
110	0x3dc55f02	0.09637262
111	0xbd78b3e5	-0.060718436
112	0x3c954689	0.01822211
113	0x3d1617c6	0.036643766
114	0x3d51b52a	0.051198162
115	0xbb1a3510	-0.0023530163
116	0x3bb5b644	0.0055454094
117	0xbccbe75a	-0.02489059
118	0x3ddb09d1	0.10695232
119	0x3da78e8e	0.08181487
120	0x3bc5d3a9	0.0060371947
121	0x3d28ef99	0.041244123
122	0xbc5a2bbc	-0.013316091
123	0xbdc1d9b1	-0.094653495
124	0xbe4e3339	-0.20136727
125	0x3daa336a	0.08310588
126	0x3dbd43cb	0.09241446
127	0x3dabd0a2	0.08389403
128	0xbddeac57	-0.10872715
129	0xbe222973	-0.15836124
130	0x3dafba5b	0.08580466
131	0x3c1e2d28	0.009654321
132	0xbd9ff172	-0.07809724
133	0x3d5f2653	0.05447991
134	0xbcec2acf	-0.028829006
135	0xbdab64bd	-0.08368824
136	0x3c86f5cc	0.016474627
137	0xbdc31e5c	-0.09527275
138	0xbdaf9aee	-0.08574472
139	0x3c56ad73	0.013102877
140	0xbdb0a2e7	-0.08624821
141	0xbdbb38a2	-0.09141661
142	0xbd69a345	-0.05704047
143	0x3c98f612	0.018672023
144	0x3bbef14c	0.0058271047
145	0xbcb7ae17	-0.02242188
146	0xbd126ae6	-0.035746478
147	0x3dab0a0c	0.08351526
148	0xbda675d5	-0.081279434
149	0xbd71b76a	-0.059012808
150	0xbd58a02c	-0.052887127
151	0xbda6c739	-0.081434675
152	0xbbc9c2a3	-0.0061572357
153	0x3e338b9d	0.17533727
154	0x3c57241a	0.013131166
155	0xbd414476	-0.04718443
156	0xbdad7016	-0.08468644
157	0x3e2d4fbe	0.1692495
158	0x3db9e728	0.09077293
159	0xbdd92384	-0.10602477
160	0xbdaeb42e	-0.0853046
161	0x3b8351c3	0.0040075495
162	0x3d9d9574	0.076945215
163	0xbc359e18	-0.011085056
164	0xbd908266	-0.070561215
165	0xbc29e594	-0.010369677
166	0xbd831adb	-0.06401607
167	0x3de86fb2	0.11349429
168	0x3bd353ae	0.0064491844
169	0xbd12ddc5	-0.035856027
170	0x3bf339b7	0.0074226516
171	0xbdd2cea0	-0.10293317
172	0x3d6c58d3	0.057701897
173	0xbe0645ec	-0.1311261
174	0xbd9b49b2	-0.07582416
175	0x3cdbf24d	0.026848936
176	0x3dd8305f	0.10556101
177	0x3d2b361c	0.04179965
178	0xbe16d3db	-0.14729254
179	0xbb2d7432	-0.0026466963
180	0xbdc2e4f5	-0.09516326
181	0xbdcbd79f	-0.09953236
182	0xbd474a0c	-0.0486546
183	0xbd748e13	-0.059705805
184	0x3d75f609	0.06004909
185	0xbd21122b	-0.039323967
186	0x3e034c06	0.1282197
187	0x3d4559ce	0.048181348
188	0xbcf745e9	-0.030184703
189	0xbe0ebd67	-0.13939439
190	0x3ca80e41	0.02051461
191	0x3bda4367	0.006660867
192	0x3d68f15f	0.056870814
193	0x3d70553a	0.05867503
194	0x3a3675cc	0.0006960302
195	0x3d948ae6	0.07253055
196	0x3d844ab1	0.06459559
197	0xbd9c6f98	-0.07638472
198	0xbda72a56	-0.08162372
199	0x3d98b324	0.07456043
200	0x3bc18edd	0.005906923
201	0x3ce3d61a	0.027812053
202	0xbc28e95e	-0.010309545
203	0xbc936340	-0.017991662
204	0x39c47f22	0.00037478755
205	0x3d017cc7	0.031613138
206	0x3cef0b85	0.029180298
207	0xbd8b556c	-0.06803402
208	0xbe22ba54	-0.15891391
209	0xbd7f6564	-0.062352553
210	0x3cfa64f4	0.030565716
211	0xbdabb8a4	-0.08384827
212	0xbc380726	-0.011232173
213	0xbd1f6cf0	-0.03892225
214	0x3dc35fe1	0.09539772
215	0xbcd23321	-0.025659146
216	0xbe10eee5	-0.14153631
217	0x3ab62fec	0.001389978
218	0x3c747f3a	0.014922911
219	0x3c32a074	0.010902513
220	0x3cab0599	0.020876693
221	0xbd6f8c4d	-0.05848341
222	0xbbc443e7	-0.00598954
223	0xbd01cb33	-0.031687927
224	0xbd30b605	-0.043142337
225	0xbc9ff067	-0.019523812
226	0xbcad35aa	-0.021143753
227	0x3c694e3a	0.014239842
228	0x3d1b4e62	0.03791655
229	0xbe4d21ea	-0.20032468
230	0x3cf34e5a	0.029700447
231	0x3d9f5c5f	0.0778129
232	0x3acad47f	0.0015474706
233	0xbc6088e0	-0.013704509
234	0x3e5308b9	0.20608796
235	0x3d60dd9a	0.054898836
236	0x3bc4f1e2	0.00601028
237	0xbd4d6065	-0.050140757
238	0xbc8453c6	-0.016153228
239	0x3e00f22f	0.12592386
240	0xbd5061b7	-0.050874438
241	0xbdde2f59	-0.108488746
242	0xbce5c382	-0.028047327
243	0xbd055c22	-0.032558568
244	0x3d22a09f	0.03970396
245	0x3d9997a9	0.0749963
246	0xbd3bf1b1	-0.04588479
247	0xbbd1191e	-0.006381168
248	0x3cc73219	0.02431588
249	0xbdf3071a	-0.11866589
250	0x3dda549e	0.10660671
251	0xbd60fd33	-0.05492897
252	0xbdcdb0e6	-0.10043506
253	0x3de9980c	0.11405954
254	0x3d0f97db	0.03505693
255	0x3d611e5d	0.054960597
